…
vation='relu'),\n    layers.MaxPooling2D((2, 2)),\n    layers.Conv2D(64, (3, 3), activation='relu'),\n    layers.Flatten(),                                  # flat all features into 1d\n    layers.Dense(64, activation='relu'),               # dense features before the final dense\n    layers.Dense(2) # number of classes\n])\nmodel1.summary()\n\nModel: \"sequential\"\n_________________________________________________________________\n Layer (type)                Output Shape              Param #   \n=================================================================\n dropout (Dropout)           (None, 150, 150, 3)       0         \n                                                                 \n conv2d (Conv2D)             (None, 148, 148, 64)      1792      \n                                                                 \n max_pooling2d (MaxPooling2  (None, 74, 74, 64)        0         \n D)                                                              \n                                                                 \n conv2d_1 (Conv2D)           (None, 72, 72, 64)        36928     \n                                                                 \n max_pooling2d_1 (MaxPoolin  (None, 36, 36, 64)        0         \n g2D)                                                            \n                                                                 \n conv2d_2 (Conv2D)           (None, 34, 34, 64)        36928     \n                                                                 \n flatten (Flatten)           (None, 73984)             0         \n                                                                 \n dense (Dense)               (None, 64)                4735040   \n                                                                 \n dense_1 (Dense)             (None, 2)                 130       \n                                                                 \n=================================================================\nTotal params: 4810818 (18.35 MB)\nTrainable params: 4810818 (18.35 MB)\nNon-trainable params: 0 (0.00 Byte)\n_________________________________________________________________\n\n\n\nmodel1.compile(optimizer='adam',\n              loss=keras.losses.SparseCat
…
rs.Conv2D(64, (3, 3), activation='relu'),\n    layers.MaxPooling2D((2, 2)),\n    layers.Conv2D(64, (3, 3), activation='relu'),\n    layers.Flatten(),\n    layers.Dense(64, activation='relu'),\n    layers.Dense(2) # number of classes\n])\nmodel2.summary()\n\nModel: \"sequential_7\"\n\n\n\n┏━━━━━━━━━━━━━━━━━━━━━━━━━━━━━━━━━━━━━━┳━━━━━━━━━━━━━━━━━━━━━━━━━━━━━┳━━━━━━━━━━━━━━━━━┓\n┃ Layer (type)                         ┃ Output Shape                ┃         Param # ┃\n┡━━━━━━━━━━━━━━━━━━━━━━━━━━━━━━━━━━━━━━╇━━━━━━━━━━━━━━━━━━━━━━━━━━━━━╇━━━━━━━━━━━━━━━━━┩\n│ random_flip_3 (RandomFlip)           │ (None, 150, 150, 3)         │               0 │\n├──────────────────────────────────────┼─────────────────────────────┼─────────────────┤\n│ random_rotation_3 (RandomRotation)   │ (None, 150, 150, 3)         │               0 │\n├──────────────────────────────────────┼─────────────────────────────┼─────────────────┤\n│ dropout_7 (Dropout)                  │ (None, 150, 150, 3)         │               0 │\n├──────────────────────────────────────┼─────────────────────────────┼─────────────────┤\n│ conv2d_21 (Conv2D)                   │ (None, 148, 148, 64)        │           1,792 │\n├──────────────────────────────────────┼─────────────────────────────┼─────────────────┤\n│ max_pooling2d_14 (MaxPooling2D)      │ (None, 74, 74, 64)          │               0 │\n├──────────────────────────────────────┼─────────────────────────────┼─────────────────┤\n│ conv2d_22 (Conv2D)                   │ (None, 72, 72, 64)          │          36,928 │\n├──────────────────────────────────────┼─────────────────────────────┼─────────────────┤\n│ max_pooling2d_15 (MaxPooling2D)      │ (None, 36, 36, 64)          │               0 │\n├──────────────────────────────────────┼─────────────────────────────┼─────────────────┤\n│ conv2d_23 (Conv2D)                   │ (None, 34, 34, 64)          │          36,928 │\n├──────────────────────────────────────┼─────────────────────────────┼─────────────────┤\n│ flatten_7 (Flatten)                  │ (None, 73984)               │               0 │\n├──────────────────────────────────────┼─────────────────────────────┼─────────────────┤\n│ dense_14 (Dense)                     │ (None, 64)                  │       4,735,040 │\n├──────────────────────────────────────┼─────────────────────────────┼─────────────────┤\n│ dense_15 (Dense)                     │ (None, 2)                   │             130 │\n└──────────────────────────────────────┴─────────────────────────────┴─────────────────┘\n\n\n\n Total params: 4,810,818 (18.35 MB)\n\n\n\n Trainable params: 4,810,818 (18.35 MB)\n\n\n\n Non-trainable params: 0 (0.00 B)\n\n\n\n\nmodel2.compile(optimizer='adam',\n              loss=keras.losses.SparseCategoricalCrossentropy(from_logits=True),\n              metrics=['accuracy'])\n\nhistory2 = m
…
yers.Conv2D(64, (3, 3), activation='relu'),\n    layers.MaxPooling2D((2, 2)),\n    layers.Conv2D(64, (3, 3), activation='relu'),\n    layers.MaxPooling2D((2, 2)),\n    layers.Conv2D(64, (3, 3), activation='relu'),\n    layers.Flatten(),\n    layers.Dense(64, activation='relu'),\n    layers.Dense(2) # number of classes\n])\nmodel3.summary()\n\nModel: \"sequential_1\"\n_________________________________________________________________\n Layer (type)                Output Shape              Param #   \n=================================================================\n model (Functional)          (None, 150, 150, 3)       0         \n                                                                 \n random_flip (RandomFlip)    (None, 150, 150, 3)       0         \n                                                                 \n random_rotation (RandomRot  (None, 150, 150, 3)       0         \n ation)                                                          \n                                                                 \n dropout_1 (Dropout)         (None, 150, 150, 3)       0         \n                                                                 \n conv2d_3 (Conv2D)           (None, 148, 148, 64)      1792      \n                                                                 \n max_pooling2d_2 (MaxPoolin  (None, 74, 74, 64)        0         \n g2D)                                                            \n                                                                 \n conv2d_4 (Conv2D)           (None, 72, 72, 64)        36928     \n                                                                 \n max_pooling2d_3 (MaxPoolin  (None, 36, 36, 64)        0         \n g2D)                                                            \n                                                                 \n conv2d_5 (Conv2D)           (None, 34, 34, 64)        36928     \n                                                                 \n flatten_1 (Flatten)         (None, 73984)             0         \n                                                                 \n dense_2 (Dense)             (None, 64)                4735040   \n                                                                 \n dense_3 (Dense)             (None, 2)                 130       \n                                                                 \n=================================================================\nTotal params: 4810818 (18.35 MB)\nTrainable params: 4810818 (18.35 MB)\nNon-trainable params: 0 (0.00 Byte)\n_________________________________________________________________\n\n\n\nmodel3.compile(optimizer='adam',\n              loss=keras.losses.SparseCat
…
loaded as the default.\n\n\n\nmodel4 = keras.models.Sequential([\n    layers.Input((150, 150, 3)),\n    layers.RandomFlip(mode = 'horizontal'),\n    layers.RandomRotation(factor =  0.1),\n    base_model_layer,   # add base model layer\n    layers.Flatten(),\n    layers.Dense(64),\n    layers.Dense(2) # number of classes\n])\nmodel4.summary()\n\nModel: \"sequential\"\n_________________________________________________________________\n Layer (type)                Output Shape              Param #   \n=================================================================\n random_flip_1 (RandomFlip)  (None, 150, 150, 3)       0         \n                                                                 \n random_rotation_1 (RandomR  (None, 150, 150, 3)       0         \n otation)                                                        \n                                                                 \n model (Functional)          (None, 5, 5, 960)         2996352   \n                                                                 \n flatten (Flatten)           (None, 24000)             0         \n                                                                 \n dense (Dense)               (None, 64)                1536064   \n                                                                 \n dense_1 (Dense)             (None, 2)                 130       \n                                                                 \n=================================================================\nTotal params: 4532546 (17.29 MB)\nTrainable params: 1536194 (5.86 MB)\nNon-trainable params: 2996352 (11.43 MB)\n_________________________________________________________________\n\n\n\nmodel4.compile(optimizer='adam',\n              loss=keras.losses.Spars
…
